Model: "model"
__________________________________________________________________________________________________
Layer (type)                    Output Shape         Param #     Connected to                     
==================================================================================================
image_input (InputLayer)        [(None, 320, 320, 3) 0                                            
__________________________________________________________________________________________________
zero_padding2d (ZeroPadding2D)  (None, 321, 321, 3)  0           image_input[0][0]                
__________________________________________________________________________________________________
conv2d (Conv2D)                 (None, 160, 160, 8)  216         zero_padding2d[0][0]             
__________________________________________________________________________________________________
batch_normalization (BatchNorma (None, 160, 160, 8)  32          conv2d[0][0]                     
__________________________________________________________________________________________________
leaky_re_lu (LeakyReLU)         (None, 160, 160, 8)  0           batch_normalization[0][0]        
__________________________________________________________________________________________________
conv2d_1 (Conv2D)               (None, 160, 160, 8)  64          leaky_re_lu[0][0]                
__________________________________________________________________________________________________
batch_normalization_1 (BatchNor (None, 160, 160, 8)  32          conv2d_1[0][0]                   
__________________________________________________________________________________________________
leaky_re_lu_1 (LeakyReLU)       (None, 160, 160, 8)  0           batch_normalization_1[0][0]      
__________________________________________________________________________________________________
depthwise_conv2d (DepthwiseConv (None, 160, 160, 8)  72          leaky_re_lu_1[0][0]              
__________________________________________________________________________________________________
batch_normalization_2 (BatchNor (None, 160, 160, 8)  32          depthwise_conv2d[0][0]           
__________________________________________________________________________________________________
leaky_re_lu_2 (LeakyReLU)       (None, 160, 160, 8)  0           batch_normalization_2[0][0]      
__________________________________________________________________________________________________
conv2d_2 (Conv2D)               (None, 160, 160, 4)  32          leaky_re_lu_2[0][0]              
__________________________________________________________________________________________________
batch_normalization_3 (BatchNor (None, 160, 160, 4)  16          conv2d_2[0][0]                   
__________________________________________________________________________________________________
conv2d_3 (Conv2D)               (None, 160, 160, 8)  32          batch_normalization_3[0][0]      
__________________________________________________________________________________________________
batch_normalization_4 (BatchNor (None, 160, 160, 8)  32          conv2d_3[0][0]                   
__________________________________________________________________________________________________
leaky_re_lu_3 (LeakyReLU)       (None, 160, 160, 8)  0           batch_normalization_4[0][0]      
__________________________________________________________________________________________________
depthwise_conv2d_1 (DepthwiseCo (None, 160, 160, 8)  72          leaky_re_lu_3[0][0]              
__________________________________________________________________________________________________
batch_normalization_5 (BatchNor (None, 160, 160, 8)  32          depthwise_conv2d_1[0][0]         
__________________________________________________________________________________________________
leaky_re_lu_4 (LeakyReLU)       (None, 160, 160, 8)  0           batch_normalization_5[0][0]      
__________________________________________________________________________________________________
conv2d_4 (Conv2D)               (None, 160, 160, 4)  32          leaky_re_lu_4[0][0]              
__________________________________________________________________________________________________
batch_normalization_6 (BatchNor (None, 160, 160, 4)  16          conv2d_4[0][0]                   
__________________________________________________________________________________________________
dropout (Dropout)               (None, 160, 160, 4)  0           batch_normalization_6[0][0]      
__________________________________________________________________________________________________
add (Add)                       (None, 160, 160, 4)  0           batch_normalization_3[0][0]      
                                                                 dropout[0][0]                    
__________________________________________________________________________________________________
conv2d_5 (Conv2D)               (None, 160, 160, 24) 96          add[0][0]                        
__________________________________________________________________________________________________
batch_normalization_7 (BatchNor (None, 160, 160, 24) 96          conv2d_5[0][0]                   
__________________________________________________________________________________________________
leaky_re_lu_5 (LeakyReLU)       (None, 160, 160, 24) 0           batch_normalization_7[0][0]      
__________________________________________________________________________________________________
zero_padding2d_1 (ZeroPadding2D (None, 161, 161, 24) 0           leaky_re_lu_5[0][0]              
__________________________________________________________________________________________________
depthwise_conv2d_2 (DepthwiseCo (None, 80, 80, 24)   216         zero_padding2d_1[0][0]           
__________________________________________________________________________________________________
batch_normalization_8 (BatchNor (None, 80, 80, 24)   96          depthwise_conv2d_2[0][0]         
__________________________________________________________________________________________________
leaky_re_lu_6 (LeakyReLU)       (None, 80, 80, 24)   0           batch_normalization_8[0][0]      
__________________________________________________________________________________________________
conv2d_6 (Conv2D)               (None, 80, 80, 8)    192         leaky_re_lu_6[0][0]              
__________________________________________________________________________________________________
batch_normalization_9 (BatchNor (None, 80, 80, 8)    32          conv2d_6[0][0]                   
__________________________________________________________________________________________________
conv2d_7 (Conv2D)               (None, 80, 80, 32)   256         batch_normalization_9[0][0]      
__________________________________________________________________________________________________
batch_normalization_10 (BatchNo (None, 80, 80, 32)   128         conv2d_7[0][0]                   
__________________________________________________________________________________________________
leaky_re_lu_7 (LeakyReLU)       (None, 80, 80, 32)   0           batch_normalization_10[0][0]     
__________________________________________________________________________________________________
depthwise_conv2d_3 (DepthwiseCo (None, 80, 80, 32)   288         leaky_re_lu_7[0][0]              
__________________________________________________________________________________________________
batch_normalization_11 (BatchNo (None, 80, 80, 32)   128         depthwise_conv2d_3[0][0]         
__________________________________________________________________________________________________
leaky_re_lu_8 (LeakyReLU)       (None, 80, 80, 32)   0           batch_normalization_11[0][0]     
__________________________________________________________________________________________________
conv2d_8 (Conv2D)               (None, 80, 80, 8)    256         leaky_re_lu_8[0][0]              
__________________________________________________________________________________________________
batch_normalization_12 (BatchNo (None, 80, 80, 8)    32          conv2d_8[0][0]                   
__________________________________________________________________________________________________
dropout_1 (Dropout)             (None, 80, 80, 8)    0           batch_normalization_12[0][0]     
__________________________________________________________________________________________________
add_1 (Add)                     (None, 80, 80, 8)    0           batch_normalization_9[0][0]      
                                                                 dropout_1[0][0]                  
__________________________________________________________________________________________________
conv2d_9 (Conv2D)               (None, 80, 80, 32)   256         add_1[0][0]                      
__________________________________________________________________________________________________
batch_normalization_13 (BatchNo (None, 80, 80, 32)   128         conv2d_9[0][0]                   
__________________________________________________________________________________________________
leaky_re_lu_9 (LeakyReLU)       (None, 80, 80, 32)   0           batch_normalization_13[0][0]     
__________________________________________________________________________________________________
depthwise_conv2d_4 (DepthwiseCo (None, 80, 80, 32)   288         leaky_re_lu_9[0][0]              
__________________________________________________________________________________________________
batch_normalization_14 (BatchNo (None, 80, 80, 32)   128         depthwise_conv2d_4[0][0]         
__________________________________________________________________________________________________
leaky_re_lu_10 (LeakyReLU)      (None, 80, 80, 32)   0           batch_normalization_14[0][0]     
__________________________________________________________________________________________________
conv2d_10 (Conv2D)              (None, 80, 80, 8)    256         leaky_re_lu_10[0][0]             
__________________________________________________________________________________________________
batch_normalization_15 (BatchNo (None, 80, 80, 8)    32          conv2d_10[0][0]                  
__________________________________________________________________________________________________
dropout_2 (Dropout)             (None, 80, 80, 8)    0           batch_normalization_15[0][0]     
__________________________________________________________________________________________________
add_2 (Add)                     (None, 80, 80, 8)    0           add_1[0][0]                      
                                                                 dropout_2[0][0]                  
__________________________________________________________________________________________________
conv2d_11 (Conv2D)              (None, 80, 80, 32)   256         add_2[0][0]                      
__________________________________________________________________________________________________
batch_normalization_16 (BatchNo (None, 80, 80, 32)   128         conv2d_11[0][0]                  
__________________________________________________________________________________________________
leaky_re_lu_11 (LeakyReLU)      (None, 80, 80, 32)   0           batch_normalization_16[0][0]     
__________________________________________________________________________________________________
zero_padding2d_2 (ZeroPadding2D (None, 81, 81, 32)   0           leaky_re_lu_11[0][0]             
__________________________________________________________________________________________________
depthwise_conv2d_5 (DepthwiseCo (None, 40, 40, 32)   288         zero_padding2d_2[0][0]           
__________________________________________________________________________________________________
batch_normalization_17 (BatchNo (None, 40, 40, 32)   128         depthwise_conv2d_5[0][0]         
__________________________________________________________________________________________________
leaky_re_lu_12 (LeakyReLU)      (None, 40, 40, 32)   0           batch_normalization_17[0][0]     
__________________________________________________________________________________________________
conv2d_12 (Conv2D)              (None, 40, 40, 8)    256         leaky_re_lu_12[0][0]             
__________________________________________________________________________________________________
batch_normalization_18 (BatchNo (None, 40, 40, 8)    32          conv2d_12[0][0]                  
__________________________________________________________________________________________________
conv2d_13 (Conv2D)              (None, 40, 40, 48)   384         batch_normalization_18[0][0]     
__________________________________________________________________________________________________
batch_normalization_19 (BatchNo (None, 40, 40, 48)   192         conv2d_13[0][0]                  
__________________________________________________________________________________________________
leaky_re_lu_13 (LeakyReLU)      (None, 40, 40, 48)   0           batch_normalization_19[0][0]     
__________________________________________________________________________________________________
depthwise_conv2d_6 (DepthwiseCo (None, 40, 40, 48)   432         leaky_re_lu_13[0][0]             
__________________________________________________________________________________________________
batch_normalization_20 (BatchNo (None, 40, 40, 48)   192         depthwise_conv2d_6[0][0]         
__________________________________________________________________________________________________
leaky_re_lu_14 (LeakyReLU)      (None, 40, 40, 48)   0           batch_normalization_20[0][0]     
__________________________________________________________________________________________________
conv2d_14 (Conv2D)              (None, 40, 40, 8)    384         leaky_re_lu_14[0][0]             
__________________________________________________________________________________________________
batch_normalization_21 (BatchNo (None, 40, 40, 8)    32          conv2d_14[0][0]                  
__________________________________________________________________________________________________
dropout_3 (Dropout)             (None, 40, 40, 8)    0           batch_normalization_21[0][0]     
__________________________________________________________________________________________________
add_3 (Add)                     (None, 40, 40, 8)    0           batch_normalization_18[0][0]     
                                                                 dropout_3[0][0]                  
__________________________________________________________________________________________________
conv2d_15 (Conv2D)              (None, 40, 40, 48)   384         add_3[0][0]                      
__________________________________________________________________________________________________
batch_normalization_22 (BatchNo (None, 40, 40, 48)   192         conv2d_15[0][0]                  
__________________________________________________________________________________________________
leaky_re_lu_15 (LeakyReLU)      (None, 40, 40, 48)   0           batch_normalization_22[0][0]     
__________________________________________________________________________________________________
depthwise_conv2d_7 (DepthwiseCo (None, 40, 40, 48)   432         leaky_re_lu_15[0][0]             
__________________________________________________________________________________________________
batch_normalization_23 (BatchNo (None, 40, 40, 48)   192         depthwise_conv2d_7[0][0]         
__________________________________________________________________________________________________
leaky_re_lu_16 (LeakyReLU)      (None, 40, 40, 48)   0           batch_normalization_23[0][0]     
__________________________________________________________________________________________________
conv2d_16 (Conv2D)              (None, 40, 40, 8)    384         leaky_re_lu_16[0][0]             
__________________________________________________________________________________________________
batch_normalization_24 (BatchNo (None, 40, 40, 8)    32          conv2d_16[0][0]                  
__________________________________________________________________________________________________
dropout_4 (Dropout)             (None, 40, 40, 8)    0           batch_normalization_24[0][0]     
__________________________________________________________________________________________________
add_4 (Add)                     (None, 40, 40, 8)    0           add_3[0][0]                      
                                                                 dropout_4[0][0]                  
__________________________________________________________________________________________________
conv2d_17 (Conv2D)              (None, 40, 40, 48)   384         add_4[0][0]                      
__________________________________________________________________________________________________
batch_normalization_25 (BatchNo (None, 40, 40, 48)   192         conv2d_17[0][0]                  
__________________________________________________________________________________________________
leaky_re_lu_17 (LeakyReLU)      (None, 40, 40, 48)   0           batch_normalization_25[0][0]     
__________________________________________________________________________________________________
depthwise_conv2d_8 (DepthwiseCo (None, 40, 40, 48)   432         leaky_re_lu_17[0][0]             
__________________________________________________________________________________________________
batch_normalization_26 (BatchNo (None, 40, 40, 48)   192         depthwise_conv2d_8[0][0]         
__________________________________________________________________________________________________
leaky_re_lu_18 (LeakyReLU)      (None, 40, 40, 48)   0           batch_normalization_26[0][0]     
__________________________________________________________________________________________________
conv2d_18 (Conv2D)              (None, 40, 40, 16)   768         leaky_re_lu_18[0][0]             
__________________________________________________________________________________________________
batch_normalization_27 (BatchNo (None, 40, 40, 16)   64          conv2d_18[0][0]                  
__________________________________________________________________________________________________
conv2d_19 (Conv2D)              (None, 40, 40, 96)   1536        batch_normalization_27[0][0]     
__________________________________________________________________________________________________
batch_normalization_28 (BatchNo (None, 40, 40, 96)   384         conv2d_19[0][0]                  
__________________________________________________________________________________________________
leaky_re_lu_19 (LeakyReLU)      (None, 40, 40, 96)   0           batch_normalization_28[0][0]     
__________________________________________________________________________________________________
depthwise_conv2d_9 (DepthwiseCo (None, 40, 40, 96)   864         leaky_re_lu_19[0][0]             
__________________________________________________________________________________________________
batch_normalization_29 (BatchNo (None, 40, 40, 96)   384         depthwise_conv2d_9[0][0]         
__________________________________________________________________________________________________
leaky_re_lu_20 (LeakyReLU)      (None, 40, 40, 96)   0           batch_normalization_29[0][0]     
__________________________________________________________________________________________________
conv2d_20 (Conv2D)              (None, 40, 40, 16)   1536        leaky_re_lu_20[0][0]             
__________________________________________________________________________________________________
batch_normalization_30 (BatchNo (None, 40, 40, 16)   64          conv2d_20[0][0]                  
__________________________________________________________________________________________________
dropout_5 (Dropout)             (None, 40, 40, 16)   0           batch_normalization_30[0][0]     
__________________________________________________________________________________________________
add_5 (Add)                     (None, 40, 40, 16)   0           batch_normalization_27[0][0]     
                                                                 dropout_5[0][0]                  
__________________________________________________________________________________________________
conv2d_21 (Conv2D)              (None, 40, 40, 96)   1536        add_5[0][0]                      
__________________________________________________________________________________________________
batch_normalization_31 (BatchNo (None, 40, 40, 96)   384         conv2d_21[0][0]                  
__________________________________________________________________________________________________
leaky_re_lu_21 (LeakyReLU)      (None, 40, 40, 96)   0           batch_normalization_31[0][0]     
__________________________________________________________________________________________________
depthwise_conv2d_10 (DepthwiseC (None, 40, 40, 96)   864         leaky_re_lu_21[0][0]             
__________________________________________________________________________________________________
batch_normalization_32 (BatchNo (None, 40, 40, 96)   384         depthwise_conv2d_10[0][0]        
__________________________________________________________________________________________________
leaky_re_lu_22 (LeakyReLU)      (None, 40, 40, 96)   0           batch_normalization_32[0][0]     
__________________________________________________________________________________________________
conv2d_22 (Conv2D)              (None, 40, 40, 16)   1536        leaky_re_lu_22[0][0]             
__________________________________________________________________________________________________
batch_normalization_33 (BatchNo (None, 40, 40, 16)   64          conv2d_22[0][0]                  
__________________________________________________________________________________________________
dropout_6 (Dropout)             (None, 40, 40, 16)   0           batch_normalization_33[0][0]     
__________________________________________________________________________________________________
add_6 (Add)                     (None, 40, 40, 16)   0           add_5[0][0]                      
                                                                 dropout_6[0][0]                  
__________________________________________________________________________________________________
conv2d_23 (Conv2D)              (None, 40, 40, 96)   1536        add_6[0][0]                      
__________________________________________________________________________________________________
batch_normalization_34 (BatchNo (None, 40, 40, 96)   384         conv2d_23[0][0]                  
__________________________________________________________________________________________________
leaky_re_lu_23 (LeakyReLU)      (None, 40, 40, 96)   0           batch_normalization_34[0][0]     
__________________________________________________________________________________________________
depthwise_conv2d_11 (DepthwiseC (None, 40, 40, 96)   864         leaky_re_lu_23[0][0]             
__________________________________________________________________________________________________
batch_normalization_35 (BatchNo (None, 40, 40, 96)   384         depthwise_conv2d_11[0][0]        
__________________________________________________________________________________________________
leaky_re_lu_24 (LeakyReLU)      (None, 40, 40, 96)   0           batch_normalization_35[0][0]     
__________________________________________________________________________________________________
conv2d_24 (Conv2D)              (None, 40, 40, 16)   1536        leaky_re_lu_24[0][0]             
__________________________________________________________________________________________________
batch_normalization_36 (BatchNo (None, 40, 40, 16)   64          conv2d_24[0][0]                  
__________________________________________________________________________________________________
dropout_7 (Dropout)             (None, 40, 40, 16)   0           batch_normalization_36[0][0]     
__________________________________________________________________________________________________
add_7 (Add)                     (None, 40, 40, 16)   0           add_6[0][0]                      
                                                                 dropout_7[0][0]                  
__________________________________________________________________________________________________
conv2d_25 (Conv2D)              (None, 40, 40, 96)   1536        add_7[0][0]                      
__________________________________________________________________________________________________
batch_normalization_37 (BatchNo (None, 40, 40, 96)   384         conv2d_25[0][0]                  
__________________________________________________________________________________________________
leaky_re_lu_25 (LeakyReLU)      (None, 40, 40, 96)   0           batch_normalization_37[0][0]     
__________________________________________________________________________________________________
depthwise_conv2d_12 (DepthwiseC (None, 40, 40, 96)   864         leaky_re_lu_25[0][0]             
__________________________________________________________________________________________________
batch_normalization_38 (BatchNo (None, 40, 40, 96)   384         depthwise_conv2d_12[0][0]        
__________________________________________________________________________________________________
leaky_re_lu_26 (LeakyReLU)      (None, 40, 40, 96)   0           batch_normalization_38[0][0]     
__________________________________________________________________________________________________
conv2d_26 (Conv2D)              (None, 40, 40, 16)   1536        leaky_re_lu_26[0][0]             
__________________________________________________________________________________________________
batch_normalization_39 (BatchNo (None, 40, 40, 16)   64          conv2d_26[0][0]                  
__________________________________________________________________________________________________
dropout_8 (Dropout)             (None, 40, 40, 16)   0           batch_normalization_39[0][0]     
__________________________________________________________________________________________________
add_8 (Add)                     (None, 40, 40, 16)   0           add_7[0][0]                      
                                                                 dropout_8[0][0]                  
__________________________________________________________________________________________________
conv2d_27 (Conv2D)              (None, 40, 40, 96)   1536        add_8[0][0]                      
__________________________________________________________________________________________________
batch_normalization_40 (BatchNo (None, 40, 40, 96)   384         conv2d_27[0][0]                  
__________________________________________________________________________________________________
leaky_re_lu_27 (LeakyReLU)      (None, 40, 40, 96)   0           batch_normalization_40[0][0]     
__________________________________________________________________________________________________
zero_padding2d_3 (ZeroPadding2D (None, 41, 41, 96)   0           leaky_re_lu_27[0][0]             
__________________________________________________________________________________________________
depthwise_conv2d_13 (DepthwiseC (None, 20, 20, 96)   864         zero_padding2d_3[0][0]           
__________________________________________________________________________________________________
batch_normalization_41 (BatchNo (None, 20, 20, 96)   384         depthwise_conv2d_13[0][0]        
__________________________________________________________________________________________________
leaky_re_lu_28 (LeakyReLU)      (None, 20, 20, 96)   0           batch_normalization_41[0][0]     
__________________________________________________________________________________________________
conv2d_28 (Conv2D)              (None, 20, 20, 24)   2304        leaky_re_lu_28[0][0]             
__________________________________________________________________________________________________
batch_normalization_42 (BatchNo (None, 20, 20, 24)   96          conv2d_28[0][0]                  
__________________________________________________________________________________________________
conv2d_29 (Conv2D)              (None, 20, 20, 136)  3264        batch_normalization_42[0][0]     
__________________________________________________________________________________________________
batch_normalization_43 (BatchNo (None, 20, 20, 136)  544         conv2d_29[0][0]                  
__________________________________________________________________________________________________
leaky_re_lu_29 (LeakyReLU)      (None, 20, 20, 136)  0           batch_normalization_43[0][0]     
__________________________________________________________________________________________________
depthwise_conv2d_14 (DepthwiseC (None, 20, 20, 136)  1224        leaky_re_lu_29[0][0]             
__________________________________________________________________________________________________
batch_normalization_44 (BatchNo (None, 20, 20, 136)  544         depthwise_conv2d_14[0][0]        
__________________________________________________________________________________________________
leaky_re_lu_30 (LeakyReLU)      (None, 20, 20, 136)  0           batch_normalization_44[0][0]     
__________________________________________________________________________________________________
conv2d_30 (Conv2D)              (None, 20, 20, 24)   3264        leaky_re_lu_30[0][0]             
__________________________________________________________________________________________________
batch_normalization_45 (BatchNo (None, 20, 20, 24)   96          conv2d_30[0][0]                  
__________________________________________________________________________________________________
dropout_9 (Dropout)             (None, 20, 20, 24)   0           batch_normalization_45[0][0]     
__________________________________________________________________________________________________
add_9 (Add)                     (None, 20, 20, 24)   0           batch_normalization_42[0][0]     
                                                                 dropout_9[0][0]                  
__________________________________________________________________________________________________
conv2d_31 (Conv2D)              (None, 20, 20, 136)  3264        add_9[0][0]                      
__________________________________________________________________________________________________
batch_normalization_46 (BatchNo (None, 20, 20, 136)  544         conv2d_31[0][0]                  
__________________________________________________________________________________________________
leaky_re_lu_31 (LeakyReLU)      (None, 20, 20, 136)  0           batch_normalization_46[0][0]     
__________________________________________________________________________________________________
depthwise_conv2d_15 (DepthwiseC (None, 20, 20, 136)  1224        leaky_re_lu_31[0][0]             
__________________________________________________________________________________________________
batch_normalization_47 (BatchNo (None, 20, 20, 136)  544         depthwise_conv2d_15[0][0]        
__________________________________________________________________________________________________
leaky_re_lu_32 (LeakyReLU)      (None, 20, 20, 136)  0           batch_normalization_47[0][0]     
__________________________________________________________________________________________________
conv2d_32 (Conv2D)              (None, 20, 20, 24)   3264        leaky_re_lu_32[0][0]             
__________________________________________________________________________________________________
batch_normalization_48 (BatchNo (None, 20, 20, 24)   96          conv2d_32[0][0]                  
__________________________________________________________________________________________________
dropout_10 (Dropout)            (None, 20, 20, 24)   0           batch_normalization_48[0][0]     
__________________________________________________________________________________________________
add_10 (Add)                    (None, 20, 20, 24)   0           add_9[0][0]                      
                                                                 dropout_10[0][0]                 
__________________________________________________________________________________________________
conv2d_33 (Conv2D)              (None, 20, 20, 136)  3264        add_10[0][0]                     
__________________________________________________________________________________________________
batch_normalization_49 (BatchNo (None, 20, 20, 136)  544         conv2d_33[0][0]                  
__________________________________________________________________________________________________
leaky_re_lu_33 (LeakyReLU)      (None, 20, 20, 136)  0           batch_normalization_49[0][0]     
__________________________________________________________________________________________________
depthwise_conv2d_16 (DepthwiseC (None, 20, 20, 136)  1224        leaky_re_lu_33[0][0]             
__________________________________________________________________________________________________
batch_normalization_50 (BatchNo (None, 20, 20, 136)  544         depthwise_conv2d_16[0][0]        
__________________________________________________________________________________________________
leaky_re_lu_34 (LeakyReLU)      (None, 20, 20, 136)  0           batch_normalization_50[0][0]     
__________________________________________________________________________________________________
conv2d_34 (Conv2D)              (None, 20, 20, 24)   3264        leaky_re_lu_34[0][0]             
__________________________________________________________________________________________________
batch_normalization_51 (BatchNo (None, 20, 20, 24)   96          conv2d_34[0][0]                  
__________________________________________________________________________________________________
dropout_11 (Dropout)            (None, 20, 20, 24)   0           batch_normalization_51[0][0]     
__________________________________________________________________________________________________
add_11 (Add)                    (None, 20, 20, 24)   0           add_10[0][0]                     
                                                                 dropout_11[0][0]                 
__________________________________________________________________________________________________
conv2d_35 (Conv2D)              (None, 20, 20, 136)  3264        add_11[0][0]                     
__________________________________________________________________________________________________
batch_normalization_52 (BatchNo (None, 20, 20, 136)  544         conv2d_35[0][0]                  
__________________________________________________________________________________________________
leaky_re_lu_35 (LeakyReLU)      (None, 20, 20, 136)  0           batch_normalization_52[0][0]     
__________________________________________________________________________________________________
depthwise_conv2d_17 (DepthwiseC (None, 20, 20, 136)  1224        leaky_re_lu_35[0][0]             
__________________________________________________________________________________________________
batch_normalization_53 (BatchNo (None, 20, 20, 136)  544         depthwise_conv2d_17[0][0]        
__________________________________________________________________________________________________
leaky_re_lu_36 (LeakyReLU)      (None, 20, 20, 136)  0           batch_normalization_53[0][0]     
__________________________________________________________________________________________________
conv2d_36 (Conv2D)              (None, 20, 20, 24)   3264        leaky_re_lu_36[0][0]             
__________________________________________________________________________________________________
batch_normalization_54 (BatchNo (None, 20, 20, 24)   96          conv2d_36[0][0]                  
__________________________________________________________________________________________________
dropout_12 (Dropout)            (None, 20, 20, 24)   0           batch_normalization_54[0][0]     
__________________________________________________________________________________________________
add_12 (Add)                    (None, 20, 20, 24)   0           add_11[0][0]                     
                                                                 dropout_12[0][0]                 
__________________________________________________________________________________________________
conv2d_37 (Conv2D)              (None, 20, 20, 136)  3264        add_12[0][0]                     
__________________________________________________________________________________________________
batch_normalization_55 (BatchNo (None, 20, 20, 136)  544         conv2d_37[0][0]                  
__________________________________________________________________________________________________
leaky_re_lu_37 (LeakyReLU)      (None, 20, 20, 136)  0           batch_normalization_55[0][0]     
__________________________________________________________________________________________________
zero_padding2d_4 (ZeroPadding2D (None, 21, 21, 136)  0           leaky_re_lu_37[0][0]             
__________________________________________________________________________________________________
depthwise_conv2d_18 (DepthwiseC (None, 10, 10, 136)  1224        zero_padding2d_4[0][0]           
__________________________________________________________________________________________________
batch_normalization_56 (BatchNo (None, 10, 10, 136)  544         depthwise_conv2d_18[0][0]        
__________________________________________________________________________________________________
leaky_re_lu_38 (LeakyReLU)      (None, 10, 10, 136)  0           batch_normalization_56[0][0]     
__________________________________________________________________________________________________
conv2d_38 (Conv2D)              (None, 10, 10, 48)   6528        leaky_re_lu_38[0][0]             
__________________________________________________________________________________________________
batch_normalization_57 (BatchNo (None, 10, 10, 48)   192         conv2d_38[0][0]                  
__________________________________________________________________________________________________
conv2d_39 (Conv2D)              (None, 10, 10, 224)  10752       batch_normalization_57[0][0]     
__________________________________________________________________________________________________
batch_normalization_58 (BatchNo (None, 10, 10, 224)  896         conv2d_39[0][0]                  
__________________________________________________________________________________________________
leaky_re_lu_39 (LeakyReLU)      (None, 10, 10, 224)  0           batch_normalization_58[0][0]     
__________________________________________________________________________________________________
depthwise_conv2d_19 (DepthwiseC (None, 10, 10, 224)  2016        leaky_re_lu_39[0][0]             
__________________________________________________________________________________________________
batch_normalization_59 (BatchNo (None, 10, 10, 224)  896         depthwise_conv2d_19[0][0]        
__________________________________________________________________________________________________
leaky_re_lu_40 (LeakyReLU)      (None, 10, 10, 224)  0           batch_normalization_59[0][0]     
__________________________________________________________________________________________________
conv2d_40 (Conv2D)              (None, 10, 10, 48)   10752       leaky_re_lu_40[0][0]             
__________________________________________________________________________________________________
batch_normalization_60 (BatchNo (None, 10, 10, 48)   192         conv2d_40[0][0]                  
__________________________________________________________________________________________________
dropout_13 (Dropout)            (None, 10, 10, 48)   0           batch_normalization_60[0][0]     
__________________________________________________________________________________________________
add_13 (Add)                    (None, 10, 10, 48)   0           batch_normalization_57[0][0]     
                                                                 dropout_13[0][0]                 
__________________________________________________________________________________________________
conv2d_41 (Conv2D)              (None, 10, 10, 224)  10752       add_13[0][0]                     
__________________________________________________________________________________________________
batch_normalization_61 (BatchNo (None, 10, 10, 224)  896         conv2d_41[0][0]                  
__________________________________________________________________________________________________
leaky_re_lu_41 (LeakyReLU)      (None, 10, 10, 224)  0           batch_normalization_61[0][0]     
__________________________________________________________________________________________________
depthwise_conv2d_20 (DepthwiseC (None, 10, 10, 224)  2016        leaky_re_lu_41[0][0]             
__________________________________________________________________________________________________
batch_normalization_62 (BatchNo (None, 10, 10, 224)  896         depthwise_conv2d_20[0][0]        
__________________________________________________________________________________________________
leaky_re_lu_42 (LeakyReLU)      (None, 10, 10, 224)  0           batch_normalization_62[0][0]     
__________________________________________________________________________________________________
conv2d_42 (Conv2D)              (None, 10, 10, 48)   10752       leaky_re_lu_42[0][0]             
__________________________________________________________________________________________________
batch_normalization_63 (BatchNo (None, 10, 10, 48)   192         conv2d_42[0][0]                  
__________________________________________________________________________________________________
dropout_14 (Dropout)            (None, 10, 10, 48)   0           batch_normalization_63[0][0]     
__________________________________________________________________________________________________
add_14 (Add)                    (None, 10, 10, 48)   0           add_13[0][0]                     
                                                                 dropout_14[0][0]                 
__________________________________________________________________________________________________
conv2d_43 (Conv2D)              (None, 10, 10, 224)  10752       add_14[0][0]                     
__________________________________________________________________________________________________
batch_normalization_64 (BatchNo (None, 10, 10, 224)  896         conv2d_43[0][0]                  
__________________________________________________________________________________________________
leaky_re_lu_43 (LeakyReLU)      (None, 10, 10, 224)  0           batch_normalization_64[0][0]     
__________________________________________________________________________________________________
depthwise_conv2d_21 (DepthwiseC (None, 10, 10, 224)  2016        leaky_re_lu_43[0][0]             
__________________________________________________________________________________________________
batch_normalization_65 (BatchNo (None, 10, 10, 224)  896         depthwise_conv2d_21[0][0]        
__________________________________________________________________________________________________
leaky_re_lu_44 (LeakyReLU)      (None, 10, 10, 224)  0           batch_normalization_65[0][0]     
__________________________________________________________________________________________________
conv2d_44 (Conv2D)              (None, 10, 10, 48)   10752       leaky_re_lu_44[0][0]             
__________________________________________________________________________________________________
batch_normalization_66 (BatchNo (None, 10, 10, 48)   192         conv2d_44[0][0]                  
__________________________________________________________________________________________________
dropout_15 (Dropout)            (None, 10, 10, 48)   0           batch_normalization_66[0][0]     
__________________________________________________________________________________________________
add_15 (Add)                    (None, 10, 10, 48)   0           add_14[0][0]                     
                                                                 dropout_15[0][0]                 
__________________________________________________________________________________________________
conv2d_45 (Conv2D)              (None, 10, 10, 224)  10752       add_15[0][0]                     
__________________________________________________________________________________________________
batch_normalization_67 (BatchNo (None, 10, 10, 224)  896         conv2d_45[0][0]                  
__________________________________________________________________________________________________
leaky_re_lu_45 (LeakyReLU)      (None, 10, 10, 224)  0           batch_normalization_67[0][0]     
__________________________________________________________________________________________________
depthwise_conv2d_22 (DepthwiseC (None, 10, 10, 224)  2016        leaky_re_lu_45[0][0]             
__________________________________________________________________________________________________
batch_normalization_68 (BatchNo (None, 10, 10, 224)  896         depthwise_conv2d_22[0][0]        
__________________________________________________________________________________________________
leaky_re_lu_46 (LeakyReLU)      (None, 10, 10, 224)  0           batch_normalization_68[0][0]     
__________________________________________________________________________________________________
conv2d_46 (Conv2D)              (None, 10, 10, 48)   10752       leaky_re_lu_46[0][0]             
__________________________________________________________________________________________________
batch_normalization_69 (BatchNo (None, 10, 10, 48)   192         conv2d_46[0][0]                  
__________________________________________________________________________________________________
dropout_16 (Dropout)            (None, 10, 10, 48)   0           batch_normalization_69[0][0]     
__________________________________________________________________________________________________
add_16 (Add)                    (None, 10, 10, 48)   0           add_15[0][0]                     
                                                                 dropout_16[0][0]                 
__________________________________________________________________________________________________
conv2d_47 (Conv2D)              (None, 10, 10, 224)  10752       add_16[0][0]                     
__________________________________________________________________________________________________
batch_normalization_70 (BatchNo (None, 10, 10, 224)  896         conv2d_47[0][0]                  
__________________________________________________________________________________________________
leaky_re_lu_47 (LeakyReLU)      (None, 10, 10, 224)  0           batch_normalization_70[0][0]     
__________________________________________________________________________________________________
depthwise_conv2d_23 (DepthwiseC (None, 10, 10, 224)  2016        leaky_re_lu_47[0][0]             
__________________________________________________________________________________________________
batch_normalization_71 (BatchNo (None, 10, 10, 224)  896         depthwise_conv2d_23[0][0]        
__________________________________________________________________________________________________
leaky_re_lu_48 (LeakyReLU)      (None, 10, 10, 224)  0           batch_normalization_71[0][0]     
__________________________________________________________________________________________________
conv2d_48 (Conv2D)              (None, 10, 10, 48)   10752       leaky_re_lu_48[0][0]             
__________________________________________________________________________________________________
batch_normalization_72 (BatchNo (None, 10, 10, 48)   192         conv2d_48[0][0]                  
__________________________________________________________________________________________________
dropout_17 (Dropout)            (None, 10, 10, 48)   0           batch_normalization_72[0][0]     
__________________________________________________________________________________________________
add_17 (Add)                    (None, 10, 10, 48)   0           add_16[0][0]                     
                                                                 dropout_17[0][0]                 
__________________________________________________________________________________________________
conv2d_49 (Conv2D)              (None, 10, 10, 96)   4608        add_17[0][0]                     
__________________________________________________________________________________________________
batch_normalization_73 (BatchNo (None, 10, 10, 96)   384         conv2d_49[0][0]                  
__________________________________________________________________________________________________
leaky_re_lu_49 (LeakyReLU)      (None, 10, 10, 96)   0           batch_normalization_73[0][0]     
__________________________________________________________________________________________________
up_sampling2d (UpSampling2D)    (None, 20, 20, 96)   0           leaky_re_lu_49[0][0]             
__________________________________________________________________________________________________
concatenate (Concatenate)       (None, 20, 20, 232)  0           up_sampling2d[0][0]              
                                                                 leaky_re_lu_37[0][0]             
__________________________________________________________________________________________________
conv2d_53 (Conv2D)              (None, 20, 20, 96)   22272       concatenate[0][0]                
__________________________________________________________________________________________________
batch_normalization_78 (BatchNo (None, 20, 20, 96)   384         conv2d_53[0][0]                  
__________________________________________________________________________________________________
leaky_re_lu_52 (LeakyReLU)      (None, 20, 20, 96)   0           batch_normalization_78[0][0]     
__________________________________________________________________________________________________
depthwise_conv2d_24 (DepthwiseC (None, 10, 10, 96)   2400        leaky_re_lu_49[0][0]             
__________________________________________________________________________________________________
depthwise_conv2d_26 (DepthwiseC (None, 20, 20, 96)   2400        leaky_re_lu_52[0][0]             
__________________________________________________________________________________________________
batch_normalization_74 (BatchNo (None, 10, 10, 96)   384         depthwise_conv2d_24[0][0]        
__________________________________________________________________________________________________
batch_normalization_79 (BatchNo (None, 20, 20, 96)   384         depthwise_conv2d_26[0][0]        
__________________________________________________________________________________________________
leaky_re_lu_50 (LeakyReLU)      (None, 10, 10, 96)   0           batch_normalization_74[0][0]     
__________________________________________________________________________________________________
leaky_re_lu_53 (LeakyReLU)      (None, 20, 20, 96)   0           batch_normalization_79[0][0]     
__________________________________________________________________________________________________
conv2d_50 (Conv2D)              (None, 10, 10, 128)  12288       leaky_re_lu_50[0][0]             
__________________________________________________________________________________________________
conv2d_54 (Conv2D)              (None, 20, 20, 96)   9216        leaky_re_lu_53[0][0]             
__________________________________________________________________________________________________
batch_normalization_75 (BatchNo (None, 10, 10, 128)  512         conv2d_50[0][0]                  
__________________________________________________________________________________________________
batch_normalization_80 (BatchNo (None, 20, 20, 96)   384         conv2d_54[0][0]                  
__________________________________________________________________________________________________
depthwise_conv2d_25 (DepthwiseC (None, 10, 10, 128)  3200        batch_normalization_75[0][0]     
__________________________________________________________________________________________________
depthwise_conv2d_27 (DepthwiseC (None, 20, 20, 96)   2400        batch_normalization_80[0][0]     
__________________________________________________________________________________________________
batch_normalization_76 (BatchNo (None, 10, 10, 128)  512         depthwise_conv2d_25[0][0]        
__________________________________________________________________________________________________
batch_normalization_81 (BatchNo (None, 20, 20, 96)   384         depthwise_conv2d_27[0][0]        
__________________________________________________________________________________________________
leaky_re_lu_51 (LeakyReLU)      (None, 10, 10, 128)  0           batch_normalization_76[0][0]     
__________________________________________________________________________________________________
leaky_re_lu_54 (LeakyReLU)      (None, 20, 20, 96)   0           batch_normalization_81[0][0]     
__________________________________________________________________________________________________
conv2d_51 (Conv2D)              (None, 10, 10, 128)  16384       leaky_re_lu_51[0][0]             
__________________________________________________________________________________________________
conv2d_55 (Conv2D)              (None, 20, 20, 96)   9216        leaky_re_lu_54[0][0]             
__________________________________________________________________________________________________
batch_normalization_77 (BatchNo (None, 10, 10, 128)  512         conv2d_51[0][0]                  
__________________________________________________________________________________________________
batch_normalization_82 (BatchNo (None, 20, 20, 96)   384         conv2d_55[0][0]                  
__________________________________________________________________________________________________
conv2d_52 (Conv2D)              (None, 10, 10, 75)   9675        batch_normalization_77[0][0]     
__________________________________________________________________________________________________
conv2d_56 (Conv2D)              (None, 20, 20, 75)   7275        batch_normalization_82[0][0]     
==================================================================================================
Total params: 315,726
Trainable params: 302,270
Non-trainable params: 13,456
__________________________________________________________________________________________________
